…
me weights of DistilBertForSequenceClassification were not initialized from the model checkpoint at distilbert-base-uncased and are newly initialized: ['classifier.bias', 'classifier.weight', 'pre_classifier.bias', 'pre_classifier.weight']\nYou should probably TRAIN this model on a down-stream task to be able to use it for predictions and inference.\n","output_type":"stream"},{"name":"stdout","text":"Using 2 GPUs!\n\nModel Architecture:\nDataParallel(\n  (module): DistilBertForSequenceClassification(\n    (distilbert): DistilBertModel(\n      (embeddings): Embeddings(\n        (word_embeddings): Embedding(30522, 768, padding_idx=0)\n        (position_embeddings): Embedding(512, 768)\n        (LayerNorm): LayerNorm((768,), eps=1e-12, elementwise_affine=True)\n        (dropout): Dropout(p=0.1, inplace=False)\n      )\n      (transformer): Transformer(\n        (layer): ModuleList(\n          (0-5): 6 x TransformerBlock(\n            (attention): DistilBertSdpaAttention(\n              (dropout): Dropout(p=0.1, inplace=False)\n              (q_lin): Linear(in_features=768, out_features=768, bias=True)\n              (k_lin): Linear(in_features=768, out_features=768, bias=True)\n              (v_lin): Linear(in_features=768, out_features=768, bias=True)\n              (out_lin): Linear(in_features=768, out_features=768, bias=True)\n            )\n            (sa_layer_norm): LayerNorm((768,), eps=1e-12, elementwise_affine=True)\n            (ffn): FFN(\n              (dropout): Dropout(p=0.1, inplace=False)\n              (lin1): Linear(in_features=768, out_features=3072, bias=True)\n              (lin2): Linear(in_features=3072, out_features=768, bias=True)\n              (activation): GELUActivation()\n            )\n            (output_layer_norm): LayerNorm((768,), eps=1e-12, elementwise_affine=True)\n          )\n        )\n      )\n    )\n    (pre_classifier): Linear(in_features=768, out_features=768, bias=True)\n    (classifier): Linear(in_features=768, out_features=4, bias=True)\n    (dropout): Dropout(p=0.2, inplace=False)\n  )\n)\n\nTotal parameters: 66,956,548\nTrainable parameters: 66,956,548\n","output_type":"stream"}],"execution_count":7},{"cell_type":"code","source":"# ============================================================================\n# Section 7: Training Configuration\n# ======================================
…
